params/best_params_15.pth (torch_old, 23996 bytes, 15 tensors)

hidden_layers.0.weight f4 [64, 37]
0.23260705 -0.13078947 -0.034283638 -0.25767136 -0.3458597 0.057363305 -0.022859484 -0.1706615
0.20136037 -0.5496468 0.035982862 -0.082651526 -0.18441495 -0.07908215 -0.41650915 -0.07765739
0.10067623 0.22850727 -0.23544767 -0.36299556 0.17556426 0.07837344 0.097356185 -0.10614495
0.050472777 -0.3046776 0.008243007 0.14001417 0.46985036 0.48329675 -0.035524126 0.24365105
-0.14026211 -0.23432991 -0.39538527 -0.12995061 0.028213032 0.11727025 0.13594607 -0.04479409
-0.37701553 -0.27996144 -0.14176393 -0.07061835 -0.17220457 -0.24152568 0.44263488 -0.10718928
0.09791011 -0.04718392 -0.19068722 0.1476231 0.026664052 0.10273171 0.070706695 -0.47584262
-0.39396507 -0.19846448 0.07616201 -0.41611332 -0.011728584 -0.33020917 -0.36716613 0.08749295
0.30772933 -0.5074462 -0.90880156 -0.12055731 0.16469906 0.10118632 -0.2889379 0.10105838
0.17939539 0.08868966 -0.071269885 0.19305782 0.15396436 -0.048890486 0.07101894 -0.3029396
-0.19334543 0.46159974 -0.03093355 -0.23292491 -0.005818796 0.4327892 -0.23024255 -0.47413036
0.18154801 -0.23577951 0.24606548 0.040019616 0.19338793 -0.12538916 0.5096933 -0.6449625
-0.49159497 -0.3200622 -1.7816975 -0.21883917 0.24793471 0.12364106 -0.2334013 -0.31091905
-0.20489018 0.08019544 0.030756226 -0.42882216 0.031389154 -0.00097645086 -0.020550475 0.16282108
-0.117989354 0.32528126 -0.02758 -0.19839716 -0.10620767 0.10043804 0.24452479 0.07730498
0.7147278 0.09359018 0.18706244 -0.1580171 -0.09432389 0.014857256 0.06778667 0.040323116
-0.08490585 -0.29929224 -0.0057477793 -0.055602428 0.014456335 0.19518173 -0.0502993 -0.64756036
0.16833885 -0.17805395 -0.21399736 0.44467682 0.52132 0.06466941 0.37769106 0.064621165
-0.2990397 -0.47024965 0.19701263 0.046806015 0.002753701 0.020010456 -0.22970466 -0.19025566
-0.3159321 0.037499078 0.2852228 -0.20616633 -0.07112502 0.06693896 -0.09510356 -0.07291478
0.104300074 0.008127705 -0.16838105 -0.16250154 -0.002238461 0.2631445 -0.33682492 0.21597882
-0.2788694 -0.05822693 0.22718002 0.20073661 0.13401681 -0.020291988 -0.028840385 0.043386005
0.3598893 0.9845511 0.22246127 -0.16692132 0.07861476 0.04187277 0.71168107 0.095271215
0.054856464 0.19611394 -0.11837487 -0.13515237 -0.11563932 0.0996995 0.40137908 -0.5105852
-0.2946805 -0.5692425 -2.7928734 -0.15516281 0.015334459 -0.10552049 0.002541769 0.09801301
-0.059711244 0.029843878 -0.0019169553 0.0057582976 -0.30575702 0.03468189 -0.11094209 0.058516756
0.16724063 0.07338792 -0.012470397 0.02427065 0.07630347 -0.2523377 -0.13068825 -0.09321768
-0.1256401 0.058562115 0.054965343 -0.61138594 -0.09353762 0.0941839 0.21823402 -0.121165335
-0.3760923 0.21764338 -0.6349094 -0.07068269 -0.18525614 0.05434413 0.1311968 0.3569757
-0.35200214 0.26479256 0.19766285 -0.28626555 -0.18110539 -0.23058245 0.044265702 -0.014444486
0.1860289 0.4551389 -0.36213827 0.048906576 0.15429197 -0.2483453 0.01074676 0.10230369
0.036999173 -0.5287445 -0.289723 -0.5832422 -0.09225243 -0.022922125 0.1228246 0.037669472
00000000: 8b30 6e3e aded 05be 006d 0cbd 80ed 83be
00000010: 8614 b1be c9f5 6a3d d043 bbbc e3c1 2ebe
00000020: 6a31 4e3e a7b5 0cbf c462 133d 3445 a9bd
00000030: 46d7 3cbe d2f5 a1bd b040 d5be d60a 9fbd
00000040: 572f ce3d cffd 693e 3219 71be 8eda b9be
00000050: 1ec7 333e 4182 a03d ae62 c73d 8662 d9bd
00000060: 8bbc 4e3d b4fe 9bbe ad0d 073c e05f 0f3e
00000070: 3a90 f03e ac72 f73e bf81 11bd a97f 793e
00000080: dfa0 0fbe 2ef4 6fbe f06f cabe c611 05be
00000090: 041f e73c 632b f03d 7235 0b3e 027a 37bd
000000a0: 2e08 c1be 1b57 8fbe 902a 11be 5aa0 90bd
000000b0: 6556 30be 8252 77be 0aa1 e23e 0e86 dbbd
000000c0: 1985 c83d ed43 41bd 8343 43be 832a 173e
000000d0: 926e da3c 0165 d23d acce 903d a5a1 f3be
000000e0: cab5 c9be 463a 4bbe d4fa 9b3d ce0c d5be
000000f0: 3f29 40bc 2d11 a9be 33fd bbbe 812f b33d
00000100: b38e 9d3e ffe7 01bf 38a7 68bf c0e6 f6bd
00000110: dfa6 283e c63a cf3d abef 93be b2f7 ce3d
00000120: 6db3 373e eda2 b53d f2f5 91bd f3b0 453e
00000130: d5a8 1d3e 6441 48bd 6172 913d e61a 9bbe
00000140: 58fc 45be cd56 ec3e 5b68 fdbc de83 6ebe
00000150: 99ab bebb 8c96 dd3e b4c4 6bbe 37c1 f2be
00000160: b9e7 393e 2f70 71be 97f8 7b3e 9ceb 233d
00000170: 7c07 463e 0466 00be 437b 023f 431c 25bf
00000180: 56b2 fbbe 31df a3be aa0e e4bf 6017 60be
00000190: 99e2 7d3e 8637 fd3d c000 6fbe c830 9fbe
000001a0: bbce 51be 823d a43d 7bf4 fb3c 948e dbbe
000001b0: ea91 003d 82f8 7fba 7859 a8bc 92ba 263e
000001c0: 67a4 f1bd 448b a63e 74ef e1bc a028 4bbe
000001d0: 6883 d9bd 76b2 cd3d b564 7a3e 1352 9e3d
000001e0: 67f8 363f 35ac bf3d 4c8d 3f3e 3ccf 21be
000001f0: e22c c1bd d96b 733c bdd3 8a3d da29 253d
00000200: 1ee3 adbd d53c 99be de57 bcbb 5fbf 63bd
00000210: 44da 6c3c b8dd 473e a406 4ebd 84c6 25bf
00000220: 0561 2c3e c653 36be 2022 5bbe aeac e33e
00000230: 3a75 053f 6571 843d b960 c13e 1a58 843d
00000240: bb1b 99be 90c4 f0be aebd 493e aab7 3f3d
00000250: 7077 343b f8ec a33c b337 6bbe 61d2 42be
00000260: dac1 a1be a298 193d b908 923e 441d 53be
00000270: ffa9 91bd 4b17 893d a8c5 c2bd 5854 95bd
00000280: 479b d53d 112a 053c 156c 2cbe ce66 26be
00000290: 25b3 12bb e0ba 863e 5174 acbe 8d29 5d3e
000002a0: f8c7 8ebe 5d7f 6ebd e1a1 683e e68d 4d3e
000002b0: b43b 093e 623b a6bc ac42 ecbc 86b5 313d
000002c0: 6943 b83e 8a0b 7c3f e3cc 633e 6ced 2abe
000002d0: c600 a13d c882 2b3d bb30 363f 8e1d c33d
000002e0: 2cb1 603d 18d2 483e 866e f2bd 6265 0abe
000002f0: 4fd4 ecbd 402f cc3d 8f81 cd3e b6b5 02bf
00000300: 5de0 96be e0b9 11bf 70be 32c0 00e3 1ebe
00000310: 623d 7b3c 201b d8bd cf93 263b 0cbb c83d
00000320: c793 74bd 267b f43c 5942 fbba 1ab0 bc3b
00000330: 2f8c 9cbe 990e 0e3d 9b35 e3bd 44af 6f3d
00000340: 2141 2b3e 684c 963d a350 4cbc 3ed3 c63c
00000350: fe44 9c3d 6832 81be 24d3 05be e9e8 bebd
00000360: cca7 00be d4de 6f3d 5723 613d ca83 1cbf
00000370: a790 bfbd 7de3 c03d bd78 5f3e 8825 f8bd
00000380: 2c8f c0be e8dd 5e3e 6c89 22bf 16c2 90bd
00000390: c9b3 3dbe f397 5e3d 7458 063e 85c5 b63e
000003a0: a039 b4be e492 873e 2168 4a3e 6691 92be
000003b0: b173 39be ce1d 6cbe f44f 353d 91a8 6cbc
000003c0: 5c7e 3e3e f707 e93e 306a b9be 4352 483d
000003d0: b7fe 1d3e 3b4e 7ebe 2e13 303c 9984 d13d
000003e0: 728c 173d cd5b 07bf 9356 94be 5c4f 15bf
000003f0: d8ee bcbd 2ec7 bbbc 778b fb3d 4e4b 1a3d

hidden_layers.0.bias f4 [64]
0.14862956 -0.09111094 -0.09558383 0.008250725 0.2152048 -0.0004217748 -0.0650529 0.024117192
-0.12615265 -0.16614726 0.059367705 0.11714148 0.062690794 0.03926404 -0.16720474 -0.00435772
0.0015649121 -0.067604296 0.019156793 -0.26934233 -0.112335585 0.0006158518 -0.05374716 -0.10345251
-0.18354377 0.14550205 -0.008439685 -0.06037412 0.16204934 0.13688391 0.036942493 0.03269125
0.16918124 0.0149844745 -0.08995498 0.015343643 -0.013222494 -0.09714023 -0.07848239 -0.07610906
-0.1660643 -0.086045764 -0.090292975 0.028574666 0.042284153 -0.2190685 -0.028593015 -0.038313266
-0.06929171 0.109874986 -0.2427092 -0.030926974 0.088819854 -0.07459677 -0.1573662 0.115088016
0.049145143 -0.1778235 -0.18001647 -0.046238784 -0.09444893 0.00036502516 0.013207953 -0.011140928
00000000: 5932 183e 5f98 babd 74c1 c3bd 0d2e 073c
00000010: a65e 5c3e a821 ddb9 743a 85bd 6b91 c53c
00000020: 292e 01be 8222 2abe 8d2b 733d dfe7 ef3d
00000030: 0864 803d 54d3 203d b837 2bbe 34cb 8ebb
00000040: bd1d cd3a 1f74 8abd b5ee 9c3c 3de7 89be
00000050: 3310 e6bd 1d71 213a fb25 5cbd e9de d3bd
00000060: e6f2 3bbe 7dfe 143e 9b46 0abc da4a 77bd
00000070: 43f0 253e 4c2b 0c3e 0351 173d 43e7 053d
00000080: d93d 2d3e 7181 753c 513a b8bd e763 7b3c
00000090: 29a3 58bc 75f1 c6bd 60bb a0bd 11df 9bbd
000000a0: c30c 2abe c338 b0bd 86eb b8bd 6b15 ea3c
000000b0: 2632 2d3d 7e53 60be e63b eabc 5fee 1cbd
000000c0: d0e8 8dbd 2306 e13d c388 78be 915a fdbc
000000d0: 2fe7 b53d 31c6 98bd 9b24 21be 44b3 eb3d
000000e0: 6b4c 493d 5d17 36be 3d56 38be e164 3dbd
000000f0: 716e c1bd d960 bf39 2c66 583c 7088 36bc

hidden_layers.1.weight f4 [32, 64]
0.24219415 0.2512384 0.17084755 0.13377018 -0.0843504 0.019126697 0.010885238 0.11280645
0.2946086 -0.020531617 0.19461626 0.022942662 -0.12487291 -0.027739143 0.29543185 0.055141915
-0.1224391 0.037494365 0.22725308 0.022184659 0.45297533 -0.19828276 0.13465576 -0.32687753
0.08364755 -0.118653834 0.010383737 0.5408021 0.04876333 0.18987377 -0.14082879 0.135058
0.17732513 0.23304033 -0.09023528 0.020729598 -0.07447228 0.28519306 0.4145996 -0.10857309
-0.3860152 0.113508955 0.37728626 -0.17214078 0.29217643 -0.10003144 -0.18003461 0.21097398
-0.056730535 0.046004202 -0.23678097 -0.0772144 0.047926605 -0.29589352 0.22182027 0.07733092
-0.12993155 0.10939504 -0.13336265 0.11243162 0.041378185 0.09627827 -0.12221746 -0.09030609
0.06192116 0.019034242 -0.082141645 0.019488828 -0.03306302 0.17334117 -0.18793799 0.20256066
-0.02172608 -0.14662533 0.17989916 -0.057363536 0.10153255 0.10645814 -0.26355124 0.15880214
-0.05437845 0.092725195 -0.19793378 -0.1902937 -0.09068396 -0.49851722 -0.02131816 -0.5534141
-0.070326716 0.08025676 -0.1118268 -0.2162792 -0.060240835 0.02383195 0.21001513 -0.012853026
0.10852443 0.10891395 0.053000197 0.0062760897 0.19466773 0.057672635 -0.19866212 -0.16449226
0.035527587 -0.15427892 -0.04040382 -0.029989805 -0.038765937 -0.2059726 -0.015038331 -0.23345093
-0.116111346 -0.22740829 0.032487087 0.037468944 0.023969557 0.15815163 0.033359908 -0.16973127
-0.06322903 -0.08381453 0.15443459 0.1617221 -0.26088077 -0.122511014 -0.057556175 0.1389556
-0.121513166 -0.172283 0.5257724 -0.026225837 -0.2621622 -0.123635955 0.03440702 -0.268087
-0.02213299 0.2634994 -0.12401945 0.037479468 0.153279 0.15164395 0.22935644 -0.041957658
-0.19429879 -0.071497776 0.35926533 -0.21108146 -0.11350414 0.49051568 -0.040249623 0.30201
0.14105424 -0.11684059 0.05044511 0.36504057 -0.3796475 0.40654108 0.00068821415 0.014543984
-0.16457105 -0.050073974 -0.102793306 0.26281124 0.03150868 0.17732579 0.379957 -0.23004477
0.25313827 -0.1601082 -0.07410771 -0.062210687 0.22837603 0.15125293 -0.060212728 -0.15820433
-0.19189341 -0.0895565 -0.061060946 -0.33000353 -0.41070408 -0.2678056 -0.21163413 -0.04079757
-0.40162268 0.18669584 0.09740792 0.003354306 0.21127647 -0.15329884 0.048126105 -0.3541711
-0.3335676 -0.06877407 0.28482997 -0.28321016 -0.016042642 0.41473538 0.17887647 -0.1369934
-0.13239968 -0.012814238 -0.041369442 0.441408 -0.06911661 0.26200172 0.025754608 -0.32936352
0.38306797 0.123518884 -0.33101597 -0.03112258 0.24033967 0.10521406 -0.110995606 0.031533536
0.22871406 0.17973267 0.15522115 0.17510778 0.21395302 0.26248294 0.2517771 0.096191734
-0.009199075 -0.23992348 0.057892747 -0.14432052 -0.3832515 0.014663491 -0.010743305 0.06416397
0.043935955 0.23465954 0.18184128 -0.09071427 0.0037231664 -0.011471162 -0.12246094 0.5864343
0.15169449 0.13647184 -0.03300532 -0.004142552 -0.02777179 -0.21047254 -0.19783078 -0.021790626
0.08751865 0.09980942 -0.055558443 -0.44879943 0.067513585 -0.07434187 -0.012628283 -0.13696024
00000000: be01 783e 52a2 803e a9f2 2e3e 0dfb 083e
00000010: e7bf acbd 97af 9c3c ff57 323c 1107 e73d
00000020: f0d6 963e ec31 a8bc 7c49 473e 40f2 bb3c
00000030: 5ebd ffbd 333d e3bc d842 973e 7ddc 613d
00000040: 5ac1 fabd b193 193d 08b5 683e 9abc b53c
00000050: 62ec e73e a30a 4bbe 33e3 093e 7e5c a7be
00000060: 684f ab3d c800 f3bd 8d20 2a3c 0272 0a3f
00000070: 0fbc 473d 456e 423e 6c35 10be a54c 0a3e
00000080: b894 353e 20a2 6e3e 46cd b8bd 1ed1 a93c
00000090: ec84 98bd d304 923e 6646 d43e 915b debd
000000a0: c9a3 c5be 6277 e83d aa2b c13e ac45 30be
000000b0: 2698 953e 49dd ccbd fe5a 38be 9009 583e
000000c0: 475e 68bd e76e 3c3d b676 72be 9522 9ebd
000000d0: b04e 443d 5b7f 97be da24 633e ac5f 9e3d
000000e0: c70c 05be 820a e03d 3890 08be 8d42 e63d
000000f0: 2c7c 293d 8b2d c53d 264d fabd 66f2 b8bd
00000100: 0ba1 7d3d b3ed 9b3c e139 a8bd 09a7 9f3c
00000110: 176d 07bd 5980 313e d172 40be 106c 4f3e
00000120: e4fa b1bc f324 16be 7c37 383e 07f6 6abd
00000130: 4cf0 cf3d ba06 da3d 30f0 86be 079d 223e
00000140: f0bb 5ebd b5e6 bd3d 27af 4abe 5adc 42be
00000150: 83b8 b9bd a63d ffbe 6ca3 aebc 8cac 0dbf
00000160: 7407 90bd a85d a43d 7305 e5bd 4b78 5dbe
00000170: 18bf 76bd 393b c33c 350e 573e 8095 52bc
00000180: 0e42 de3d 470e df3d bc16 593d a8a7 cd3b
00000190: fa56 473e 243a 6c3d 156e 4bbe a970 28be
000001a0: 6085 113d 4bfb 1dbe 7a7e 25bd 2ead f5bc
000001b0: 08c9 1ebd 7bea 52be 5563 76bc c30d 6fbe
000001c0: c9cb edbd b8dd 68be 2e11 053d 0979 193d
000001d0: ce5b c43c 80f2 213e 66a4 083d 09ce 2dbe
000001e0: 397e 81bd f4a6 abbd 1a24 1e3e 7a9a 253e
000001f0: 2a92 85be 0ee7 fabd 06c0 6bbd 604a 0e3e
00000200: e5db f8bd f46a 30be 0599 063f 91d7 d6bc
00000210: 203a 86be d934 fdbd 60ee 0c3d b342 89be
00000220: 3f50 b5bc 65e9 863e e9fd fdbd 1284 193d
00000230: 2cf5 1c3e 8d48 1b3e 6adc 6a3e cbdb 2bbd
00000240: 43f6 46be 6d6d 92bd a0f1 b73e bd25 58be
00000250: dc74 e8bd df24 fb3e cadc 24bd 0ea1 9a3e
00000260: 8670 103e 1f4a efbd 889f 4e3d 99e6 ba3e
00000270: 2861 c2be 2726 d03e 4569 343a e449 6e3c
00000280: 5085 28be 5e1a 4dbd 4c85 d2bd 328f 863e
00000290: 3f0f 013d e494 353e b989 c23e db90 6bbe
000002a0: 579b 813e 67f3 23be c8c5 97bd a2d0 7ebd
000002b0: 68db 693e 0ce2 1a3e 9fa1 76bd 5100 22be
000002c0: b57f 44be 6669 b7bd 0b1b 7abd 39f6 a8be
000002d0: ce47 d2be d11d 89be 9eb6 58be 5a1b 27bd
000002e0: 7da1 cdbe 322d 3f3e ce7d c73d ebd3 5b3b
000002f0: dc58 583e 5ffa 1cbe e11f 453d ea55 b5be
00000300: 5fc9 aabe 6bd9 8cbd 3cd5 913e ec00 91be
00000310: dc6b 83bc 3258 d43e 652b 373e ff47 0cbe
00000320: c893 07be cff2 51bc 0173 29bd 3b00 e23e
00000330: 028d 8dbd 1725 863e 54fb d23c 56a2 a8be
00000340: 7c21 c43e 78f7 fc3d ed7a a9be c8f4 febc
00000350: 9a1b 763e 787a d73d aa51 e3bd 4f29 013d
00000360: 0534 6a3e d70b 383e 4bf2 1e3e 744f 333e
00000370: 8016 5b3e 2a64 863e eee8 803e 2c00 c53d
00000380: b8b7 16bc 80ae 75be f220 6d3d c2c8 13be
00000390: 8a39 c4be 243f 703c b004 30bc 6668 833d
000003a0: 30f6 333d 974a 703e 9a34 3a3e 67c8 b9bd
000003b0: 5e00 743b 8af1 3bbc cdcc fabd 8f20 163f
000003c0: cd55 1b3e 46bf 0b3e 9630 07bd 3fbe 87bb
000003d0: aa81 e3bc 1d86 57be 2794 4abe 4182 b2bc
000003e0: fa3c b33d e268 cc3d 4091 63bd 0ac9 e5be
000003f0: 9044 8a3d 8d40 98bd dce6 4ebc 4e3f 0cbe

hidden_layers.1.bias f4 [32]
-0.0034677312 -0.051924963 -0.07013764 -0.13246281 -0.07885754 -0.06259372 -0.16551986 -0.1093087
0.075331524 -0.31247678 0.014805897 -0.0730325 0.12819833 0.1450925 0.053628366 0.05162489
-0.04607194 0.010396107 0.0038447357 -0.025963673 0.045587923 -0.08896472 0.09799388 0.025701318
0.07768798 -0.14815472 0.0978633 0.16494024 -0.020533565 0.114897005 0.17091122 -0.071654186
00000000: e042 63bb 45af 54bd 53a4 8fbd 55a4 07be
00000010: 1080 a1bd 2331 80bd 0a7e 29be 3ddd dfbd
00000020: 6a47 9a3d f5fc 9fbe 6f94 723c 1092 95bd
00000030: 6c46 033e 2193 143e 6ba9 5b3d 9f74 533d
00000040: eeb5 3cbd 6f54 2a3c f6f7 7b3b c5b1 d4bc
00000050: 67ba 3a3d 2333 b6bd 04b1 c83d 928b d23c
00000060: e01a 9f3d dfb5 17be 8e6c c83d 18e6 283e
00000070: 0236 a8bc 1f4f eb3d 5a03 2f3e 6ebf 92bd

hidden_layers.2.weight f4 [16, 32]
-0.11271924 -0.6993338 0.5436181 0.15801367 -0.14684762 0.4897113 0.26500797 -0.1516203
-0.25187254 0.059820306 0.4456017 0.12610558 0.06360348 0.101071686 0.0135251945 0.048957445
-0.54272515 0.046050984 -0.26439086 -0.20094228 -0.57580817 0.26378962 -0.002919779 -0.374199
-0.1128055 -0.22750594 -0.19404894 -0.076728895 0.23116112 -0.5442009 -0.3806301 0.3235259
-0.040196426 -0.08588112 -0.06827312 -0.22701602 -0.0454789 0.17542459 0.12967718 0.049267706
-0.20860384 0.010736216 -0.04811624 -0.031885065 -0.19168256 0.08004113 -0.10412684 -0.13625854
-0.18269782 -0.06235718 0.053811077 -0.12095465 -0.26493037 -0.20779751 -0.0031656544 0.40616852
0.066933036 -0.24483155 -0.25985408 -0.011727558 0.11271098 -0.04528771 0.15524517 -0.021573199
-0.049359977 -0.7929524 0.45697802 0.2329055 0.20266281 0.2647214 -0.062294643 -0.209565
-0.48315692 0.12724963 0.27550718 0.03655014 -0.09050878 -0.03700509 0.04646887 0.21671784
-0.4769877 -0.09870456 -0.12214825 0.07094492 -0.43843204 0.13358673 -0.23338132 -0.3809088
-0.12497614 -0.0707698 -0.21534322 -0.10681857 0.3679565 -0.14873469 -0.39190438 0.36343646
0.45736676 0.17157298 -0.1068056 0.21362707 0.17456435 -0.21161133 -0.09419035 -0.03915754
-0.0018244355 0.47996247 0.2090781 0.11061701 0.082847044 -0.18999289 0.0830735 0.3402284
-0.07455817 0.043875847 -0.28331906 0.379096 -0.037461087 0.43718004 0.36901456 0.18057883
0.13111055 0.2917745 -0.1858364 -0.27806464 0.37260342 0.21423186 -0.060241602 -0.13387612
0.19438629 0.08359408 0.049524467 0.11051509 -0.07710417 0.057659004 -0.19086471 0.0054992978
0.2570482 0.5135313 0.58769315 -0.12537894 -0.23256141 -0.35622066 0.015606691 -0.5736812
-0.28785288 -0.049876384 -0.16765904 0.06281706 -0.177159 0.2591267 -0.12884817 0.008835781
-0.2748465 0.1325029 -0.12863578 -0.21393129 0.17859913 0.07506498 -0.0569337 -0.07895446
0.34816366 -0.15125038 -0.119167805 0.2580156 0.16059484 0.038226224 0.45846292 -0.012004057
0.25632396 -0.07516547 -0.18178049 -0.19924943 0.1722727 -0.07911529 -0.20515634 0.2941807
0.0050274003 -0.24785295 0.23176913 0.28309965 -0.05150086 0.22791465 0.28885683 -0.38564917
0.020264335 -0.123514034 -0.16419372 -0.109721966 0.20162494 -0.12369849 0.12779589 0.101453364
0.011421968 0.09977515 0.12028986 -0.11754922 -0.010039094 0.29677173 -0.619358 0.027795441
0.253803 -0.1876349 0.36967435 -0.13164677 0.14396873 -0.03506894 -0.26208806 0.24700722
0.08780124 -0.17406093 0.2760748 -0.19359256 -0.022816988 0.04330753 -0.46279776 0.057265982
0.14317158 0.30491346 -0.15816355 0.02052916 -0.056993406 -0.33946732 -0.18223894 0.035632115
-0.045396768 -0.18296182 -0.10351224 0.06607222 -0.026784701 -0.027607607 -0.0066631595 0.20768107
-0.26498476 0.14956227 -0.022846473 -0.024463128 0.15330838 -0.097589165 -0.4837889 0.020283988
0.12808698 -0.21424983 -0.09090101 0.2161721 -0.053830147 0.26783183 0.31207675 0.07567083
0.29356605 0.05372342 0.13309237 -0.14484711 0.16614895 -0.16348627 0.35978475 0.3099901
00000000: 58d9 e6bd 8a07 33bf 8e2a 0b3f 56ce 213e
00000010: 395f 16be 71bb fa3e 20af 873e 5a42 1bbe
00000020: 70f5 80be 2306 753d e825 e43e d221 013e
00000030: 8b42 823d acfe ce3d c798 5d3c 9a87 483d
00000040: 09f0 0abf f59f 3c3d 3d5e 87be d0c3 4dbe
00000050: 2a68 13bf 6f0f 873e c359 3fbb 0397 bfbe
00000060: 9206 e7bd 51f7 68be c4b4 46be 0a24 9dbd
00000070: 80b5 6c3e c050 0bbf f3e1 c2be 30a5 a53e
00000080: 02a5 24bd 71e2 afbd c7d2 8bbd e376 68be
00000090: 1548 3abd 81a2 333e 18ca 043e efcc 493d
000000a0: 3f9c 55be f4e6 2f3c 8915 45bd ea99 02bd
000000b0: 6f48 44be 9bec a33d 7440 d5bd 5c87 0bbe
000000c0: 2315 3bbe 3e6a 7fbd 0169 5c3d 12b7 f7bd
000000d0: f4a4 87be dfc8 54be de76 4fbb 52f5 cf3e
000000e0: 3014 893d 1fb5 7abe 980b 85be f224 40bc
000000f0: 04d5 e63d 9b7f 39bd 97f8 1e3e 47ba b0bc
00000100: b02d 4abd eefe 4abf 06f9 e93e c87e 6e3e
00000110: d786 4f3e 9089 873e ab28 7fbd 3598 56be
00000120: 5860 f7be ba4d 023e 470f 8d3e 99b5 153d
00000130: ab5c b9bd a692 17bd 2456 3e3d 48eb 5d3e
00000140: bb37 f4be 9e25 cabd dd28 fabd 924b 913d
00000150: 2a7a e0be f6ca 083e 83fb 6ebe 7a06 c3be
00000160: 7ef3 ffbd c2ef 90bd ef82 5cbe b2c3 dabd
00000170: cb64 bc3e e84d 18be b1a7 c8be 5814 ba3e
00000180: fa2b ea3e d4b0 2f3e e5bc dabd 0ec1 5a3e
00000190: ffc0 323e a4b0 58be dfe6 c0bd a863 20bd
000001a0: e621 efba a4bd f53e 9218 563e 2c8b e23d
000001b0: b6ab a93d 7f8d 42be 7022 aa3d 6b32 ae3e
000001c0: f4b1 98bd 29b7 333d 320f 91be df18 c23e
000001d0: cc70 19bd 10d6 df3e 7aef bc3e a8e9 383e
000001e0: d841 063e 7863 953e e64b 3ebe 7d5e 8ebe
000001f0: e0c5 be3e 995f 5b3e e6bf 76bd d216 09be
00000200: 330d 473e 5f33 ab3d 2bda 4a3d bc55 e23d
00000210: cbe8 9dbd d92b 6c3d 0a72 43be 7433 b43b
00000220: d29b 833e ca76 033f 0f73 163f 5663 00be
00000230: 9424 6ebe 8e62 b6be 35b3 7f3c c5dc 12bf
00000240: 7461 93be 2e4b 4cbd d0ae 2bbe 3ba6 803d
00000250: 2b69 35be 41ac 843e c6f0 03be f4c3 103c
00000260: aeb8 8cbe d7ae 073e 19b9 03be ce10 5bbe
00000270: b1e2 363e abbb 993d 5033 69bd e0b2 a1bd
00000280: 8242 b23e 61e1 1abe 400e f4bd 9f1a 843e
00000290: f972 243e 1a93 1c3d a7bb ea3e aaac 44bc
000002a0: e53c 833e 5bf0 99bd aa24 3abe 0b08 4cbe
000002b0: 4168 303e 3207 a2bd 8114 52be da9e 963e
000002c0: e4bc a43b 2acd 7dbe e354 6d3e 70f2 903e
000002d0: 91f2 52bd 7562 693e 0be5 933e cf73 c5be
000002e0: 6401 a63c edf4 fcbd 6622 28be e9b5 e0bd
000002f0: c576 4e3e a255 fdbd eddc 023e c8c6 cf3d
00000300: 3523 3b3c ea56 cc3d 885a f63d a5bd f0bd
00000310: 037b 24bc 77f2 973e 3f8e 1ebf 44b3 e33c
00000320: 78f2 813e 5d23 40be f545 bd3e 69ce 06be
00000330: 8a6c 133e 73a4 0fbd 6830 86be 76ef 7c3e
00000340: 23d1 b33d 073d 32be ad59 8d3e 213d 46be
00000350: b1ea babc 3d63 313d d4f3 ecbe bc8f 6a3d
00000360: 929b 123e 9e1d 9c3e a0f5 21be c52c a83c
00000370: eb71 69bd a9ce adbe d89c 3abe fbf2 113d
00000380: f6f1 39bd 585a 3bbe 3afe d3bd df50 873d
00000390: 976b dbbc 5929 e2bc a256 dabb 59aa 543e
000003a0: 15ac 87be da26 193e 8728 bbbc e666 c8bc
000003b0: dffc 1c3e d4dc c7bd 2eb3 f7be 9b2a a63c
000003c0: 3c29 033e 4f64 5bbe 4f2a babd 385c 5d3e
000003d0: 007d 5cbd 4121 893e 86c8 9f3e 4ff9 9a3d
000003e0: 4a4e 963e 170d 5c3d 5e49 083e cd52 14be
000003f0: f322 2a3e f268 27be b535 b83e 06b7 9e3e

hidden_layers.2.bias f4 [16]
-0.16582428 -0.2275494 -0.16435926 -0.10377334 0.05302649 0.03570621 -0.1958212 -0.28809768
-0.10651491 0.0084740855 -0.10258322 -0.28247863 0.094814286 -0.084175184 -0.21960253 -0.06879571
00000000: d7cd 29be b602 69be cb4d 28be 1e87 d4bd
00000010: 4e32 593d ad40 123d 5a85 48be 8a81 93be
00000020: 7d24 dabd e4d6 0a3c 2717 d2bd 0aa1 90be
00000030: fe2d c23d 0a64 acbd 7cdf 60be c4e4 8cbd

hidden_layers.3.weight f4 [8, 16]
0.025520876 -0.20305863 0.28923452 0.037477195 0.31434882 -0.37499318 0.38156775 -0.060812164
-0.2186799 -0.35554427 -0.31107506 0.29539683 -0.22824372 -0.30108324 0.28485873 0.21126615
0.30231386 0.28251702 0.41367385 0.11619945 0.3967254 0.22142121 0.1146393 0.09245749
0.19624819 -0.12555696 0.016332747 0.13621177 0.2718652 -0.19040433 -0.11721168 0.1288219
0.038426757 0.0057583107 -0.18217203 -0.09418495 -0.02003248 0.036664862 0.38536486 -0.30926323
0.4569586 -0.11648647 0.26332602 -0.28706604 0.4207585 -0.58146113 -0.33888948 -0.24691524
0.37299356 0.087504454 0.25782293 0.29685515 0.5936498 0.3427692 0.039564043 0.27697006
0.04386546 -0.19926572 -0.06635121 0.58015275 -0.06700674 -0.3012521 0.21495287 -0.2360943
-0.14165242 0.096074894 0.004408501 -0.2669547 -0.206367 0.27871066 0.16567086 -0.20879169
0.077371515 0.2631456 0.30341265 -0.23727702 0.10720424 0.09679438 -0.026679946 0.13116942
-0.17736702 -0.28812355 0.10770241 0.31732404 -0.07127542 -0.21793191 -0.11872492 -0.24389198
-0.13372289 0.21731037 0.06400901 -0.02125006 0.2812434 -0.01949127 0.30995083 -0.08048565
0.41521358 0.06303585 0.40644866 0.5082698 0.16488615 0.3299256 0.22002195 0.14468803
0.09181592 -0.08969765 -0.046217177 -0.12229177 0.05743351 0.16342463 0.07016446 -0.47823074
0.6003101 0.114485584 0.49092874 0.1651324 0.24468862 -0.012676593 -0.17450023 0.13963687
0.085958876 0.030505719 0.0052212244 0.348676 -0.119246505 -0.37259126 -0.041099302 -0.009943206
00000000: 2811 d13c 9aee 4fbe 8c16 943e b081 193d
00000010: 54f2 a03e 1bff bfbe d95c c33e 2d16 79bd
00000020: a0ed 5fbe e609 b6be 3b45 9fbe 413e 973e
00000030: b9b8 69be 9527 9abe 01d9 913e 2756 583e
00000040: e2c8 9a3e 12a6 903e 0fcd d33e faf9 ed3d
00000050: 971f cb3e 3ebc 623e 02c8 ea3d 5a5a bd3d
00000060: 49f5 483e 0192 00be 41cc 853c 197b 0b3e
00000070: ea31 8b3e 5af9 42be ad0c f0bd e3e9 033e
00000080: 6065 1d3d 36b0 bc3b 4e8b 3abe 0ae4 c0bd
00000090: 281b a4bc e52d 163d 8b4e c53e c057 9ebe
000000a0: 7af6 e93e 7590 eebd abd2 863e 52fa 92be
000000b0: a86d d73e a3da 14bf ec82 adbe 59d7 7cbe
000000c0: 03f9 be3e 8935 b33d 5e01 843e 66fd 973e
000000d0: 6ff9 173f 727f af3e e80d 223d 05cf 8d3e
000000e0: 45ac 333d 500c 4cbe 25e3 87bd e484 143f
000000f0: d43a 89bd b73d 9abe 9b1c 5c3e b4c2 71be
00000100: 550d 11be eac2 c43d 3075 903b 49ae 88be
00000110: df51 53be 2ab3 8e3e 9fa5 293e 7dcd 55be
00000120: f574 9e3d 05bb 863e e758 9b3e bff8 72be
00000130: e68d db3d 223c c63d e78f dabc 4751 063e
00000140: b39f 35be ee84 93be 1593 dc3d 4c78 a23e
00000150: d9f8 91bd 8b29 5fbe 0d26 f3bd d2be 79be
00000160: a7ee 08be 9c86 5e3e 2817 833d 9b14 aebc
00000170: 23ff 8f3e 28ac 9fbc e0b1 9e3e a9d5 a4bd
00000180: e096 d43e f118 813d 0a1a d03e f81d 023f
00000190: ead7 283e 02ec a83e 6f4d 613e 1929 143e
000001a0: fc09 bc3d 67b3 b7bd 394e 3dbd 1c74 fabd
000001b0: 663f 6b3d c958 273e 62b2 8f3d a9da f4be
000001c0: ecad 193f 6b77 ea3d 035b fb3e 7818 293e
000001d0: a78f 7a3e 7cb1 4fbc 30b0 32be f8fc 0e3e
000001e0: 350b b03d 21e7 f93c ce16 ab3b a985 b23e
000001f0: 8337 f4bd 48c4 bebe be57 28bd d4e8 22bc

hidden_layers.3.bias f4 [8]
0.025525691 -0.47879133 -0.027691782 -0.24629202 0.11876228 0.3042661 -0.17618455 -0.36152217
00000000: 411b d13c 2324 f5be e0d9 e2bc fa33 7cbe
00000010: a339 f33d c4c8 9b3e b969 34be 6f19 b9be

advantage_hidden.weight f4 [8, 8]
0.42136046 -0.18697031 -0.5908878 0.25950187 -0.3665628 -0.15547085 0.23460071 0.05105673
0.14271128 -0.10812513 0.31097823 0.041533306 0.15604338 0.49366263 -0.16501503 0.4229634
0.2857676 -0.311488 0.06318107 -0.29778725 -0.00048502808 0.09629273 -0.41515142 0.15379663
-0.043993134 0.25759527 0.19708692 0.13316786 0.3646619 0.02357329 0.33015782 -0.10994011
0.10145847 0.006191898 -0.039707128 -0.036636673 -0.1619969 0.23735629 0.283422 -0.054106668
-0.60668397 0.1695817 -0.2841604 -0.010281448 -0.29188716 0.4512059 0.2270933 -0.27919212
-0.89171225 -0.23079655 0.18381912 -0.14791453 -0.0036820013 -0.08084393 0.1120289 -0.23039569
0.27327886 -0.23697501 -0.015819382 0.38446108 -0.25282237 0.39459708 0.27547944 -0.077285595
00000000: 8fbc d73e 2575 3fbe 6c44 17bf 6edd 843e
00000010: 1fae bbbe c033 1fbe 2b3b 703e dd20 513d
00000020: e822 123e b570 ddbd 8a38 9f3e d41e 2a3d
00000030: d6c9 1f3e 59c1 fc3e b3f9 28be a98e d83e
00000040: 2250 923e 5b7b 9fbe 1465 813d 9277 98be
00000050: 5e4b feb9 1f35 c53d ba8e d4be dd7c 1d3e
00000060: 2532 34bd 87e3 833e 27d1 493e 285d 083e
00000070: f7b4 ba3e c61c c13c 720a a93e 4828 e1bd
00000080: 75c9 cf3d 68e5 ca3b f1a3 22bd 5610 16bd
00000090: 84e2 25be 870d 733e b01c 913e f49e 5dbd
000000a0: a44f 1bbf d3a6 2d3e 797d 91be 8573 28bc
000000b0: 3c72 95be 7604 e73e 258b 683e 45f2 8ebe
000000c0: 4147 64bf ee55 6cbe 143b 3c3e e876 17be
000000d0: bb4d 71bb 8191 a5bd 686f e53d d9ec 6bbe
000000e0: 35eb 8b3e 94a9 72be a697 81bc 15d8 c43e
000000f0: ef71 81be a108 ca3e a40b 8d3e e947 9ebd

advantage_hidden.bias f4 [8]
0.16229147 -0.22938864 0.06103701 0.07070158 0.20915799 -0.13432719 -0.2248523 -0.23602793
00000000: bc2f 263e dbe4 6abe f201 7a3d fdcb 903d
00000010: 832d 563e 118d 09be ae3f 66be 4eb1 71be

output_advantage_values.weight f4 [4, 8]
-0.5484933 0.12001304 -0.2368539 -0.04171382 -0.026922323 0.093908906 0.06860452 -0.32498914
-0.33833057 0.124441 -0.29841945 0.08333173 -0.025764031 0.0022614053 0.33201626 0.5244039
-0.003726362 0.14718589 0.032188952 -0.026661474 -0.02089852 0.37189132 0.43440923 -0.21505535
-0.36224467 0.36534235 0.0770432 -0.064939514 0.16593708 0.26616096 0.21614087 0.21218023
00000000: 0f6a 0cbf 66c9 f53d d489 72be 1cdc 2abd
00000010: 348c dcbc 5053 c03d 8780 8c3d fa64 a6be
00000020: aa39 adbe ecda fe3d 6fca 98be d3a9 aa3d
00000030: 170f d3bc 1634 143b 09fe a93e 563f 063f
00000040: fb35 74bb e6b7 163e 90d8 033d 2a69 dabc
00000050: 5f33 abbc 8a68 be3e e36a de3e 7837 5cbe
00000060: 2278 b9be 270e bb3e d3c8 9d3d 02ff 84bd
00000070: 69eb 293e 4046 883e 0854 5d3e c645 593e

output_advantage_values.bias f4 [4]
-0.0042136745 0.22034495 -0.18331392 -0.15109296
00000000: dd12 8abb 1ba2 613e a5b6 3bbe 1db8 1abe

state_values_hidden.weight f4 [8, 8]
-0.047591884 0.11403474 0.06781928 0.09629124 -0.040185124 -0.029885236 0.42377442 0.16156499
0.30642322 0.101907685 0.41423067 0.13310388 -0.30281588 -0.28631836 -0.22563776 -0.2648146
0.29986113 0.05940065 -0.018145189 -0.12226513 0.0964479 0.21579823 0.08763995 -0.30550632
-0.045872346 -0.039019134 -0.042275447 -0.40840334 -0.27997825 0.005595829 -0.24886793 -0.38367334
-0.036551937 0.5708737 0.11765988 0.5060482 -0.48816505 0.1591833 0.39590847 0.3709798
-0.14393665 0.13934855 -0.14023465 0.10099506 -0.16542792 -0.030386452 -0.20797437 0.29467416
-0.14927089 -0.41576543 0.1342008 -0.47068995 0.39688483 0.2947105 -0.25880414 -0.23916116
-0.25075734 0.18190792 0.034308445 0.0019379251 0.0030071405 0.027447069 0.06393311 0.18499856
00000000: b5ef 42bd 0c8b e93d d6e4 8a3d 5734 c53d
00000010: 2899 24bd e2d1 f4bc f6f8 d83e 4b71 253e
00000020: 81e3 9c3e fab4 d03d 0b16 d43e 624c 083e
00000030: af0a 9bbe 5298 92be 960d 67be c795 87be
00000040: 6687 993e 194e 733d 38a5 94bc 2466 fabd
00000050: 7a86 c53d 36fa 5c3e 937c b33d 536b 9cbe
00000060: a4e4 3bbd 87d2 1fbd 0529 2dbd 3e1a d1be
00000070: 4f59 8fbe 375d b73b 3cd7 7ebe d570 c4be
00000080: 7cb7 15bd c724 123f aaf7 f03d 608c 013f
00000090: c5f0 f9be f200 233e 84b4 ca3e 10f1 bd3e
000000a0: 2164 13be 63b1 0e3e ac99 0fbe 7fd6 ce3d
000000b0: f065 29be 02ed f8bc 3cf7 54be 88df 963e
000000c0: 78da 18be 35df d4be ef6b 093e 46fe f0be
000000d0: 7d34 cb3e 4be4 963e fa81 84be aae6 74be
000000e0: 4463 80be 1246 3a3e 0387 0c3d fa01 fe3a
000000f0: 7213 453b add8 e03c 5def 823d 4370 3d3e

state_values_hidden.bias f4 [8]
-0.54973763 -0.05851733 0.18713465 0.5292907 -0.46035877 0.046556845 0.22188628 -0.36500186
00000000: 9bbb 0cbf deaf 6fbd 3aa0 3f3e 987f 073f
00000010: 25b4 ebbe 64b2 3e3d 2836 633e 86e1 babe

output_state_values.weight f4 [1, 8]
-0.14988613 0.11797692 0.10567238 0.46510136 -0.25171903 -0.054196212 0.42131335 -0.18757127
00000000: c07b 19be e29d f13d c36a d83d c421 ee3e
00000010: 51e1 80be d9fc 5dbd 62b6 d73e af12 40be
